model/saved_models/autoencoder_model.pth (torch, 128550 bytes, 24 tensors)

encoder.0.weight f4 [128, 30]
00000000: c6ed 6abe f387 0a3e e8e0 dfbc 6c57 9dbd
00000010: 997d 15be 58e6 913d fa89 3dbd 955d 6b3c
00000020: ecd2 623d 01a1 a03d e302 1fbe 4884 84bd
00000030: 2fe5 f23d 8510 743d 49ca 6dbc b215 09be
00000040: 99fa 103d cc42 043e 8aa1 72be 9152 363e
00000050: cf77 a7bd e158 21be c6ff c0bd 22bd 26bd
00000060: 14c7 9a3d a160 87bd a4a8 da3d 1dc0 74bc
00000070: c146 a7bd 92bd 203e dea8 c63d 806f 34bc
00000080: 93a8 9b3d be5d c3bd 3db5 af3d 930f 053e
00000090: f1e0 ddbd 96d7 803e c000 52bd 3a0f 2bbe
000000a0: 2a70 86be 8f1e 303d d053 d63d 3e08 6c3e
000000b0: f656 07be 3786 ecbd 4ae3 4cbe 40d5 433d
000000c0: 8e36 26be 4b62 d4bd 0fe8 e83d 4a88 aebd
000000d0: 4de9 44bd a255 5d3d b233 e2bd 3d07 7fbd
000000e0: ae4b 803b 68e5 993d bff7 06bd 2b78 83be
000000f0: c308 89bd 2acd 09be 8005 223d 98bb f73c
00000100: bc2a 693d 4034 713d 783d 12be 6c5a dbbd
00000110: a0f1 b43b 6037 1d3e 702a 713c 25d6 2abe
00000120: 009d 243d 00b1 643a 6044 14bd b87d 8a3d
00000130: 1fb7 16be dc67 1abd 40fd 403b 1b1b c7bd
00000140: 6a4f 1dbe 30d2 f4bc 8fee 9fbd 6417 663d
00000150: f8ad 9bbc 98e2 9abd 7ad2 9fbd bc29 fbbd
00000160: 34d5 28be bc9b f33d 80cf df3e ee47 983d
00000170: ab36 c43d 25dd c1bd 8d74 b3be 3a41 62bd
00000180: 96b8 d23b 8426 e63c bc76 42be 9835 37bc
00000190: 6c46 5abe 8402 123e 7601 be3d 6ee0 803e
000001a0: becf 64bd ac4e 2c3e 9d83 5fbe e969 12be
000001b0: e7b8 d3bd 2ed8 393e 3571 b93c d09e 67be
000001c0: e827 47bc 673d 5dbd 9d45 dfbe a695 4ebe
000001d0: d53d ac3b 90e9 72bc b8d2 65be c31b 35be
000001e0: 0d2d ba3e 7fa5 5ebb c7be ad3c b12e 57be
000001f0: 86fe 0f3e 2ba0 3cbd cc85 51be 3b49 b6bd
00000200: 380f 0ebe 5980 8bbd 66bf 563d 60c3 993c
00000210: 6443 493e f702 a43d 98d0 19be 2284 84bd
00000220: 200c adbd 0e8c 02bd c6ec b5bc f328 543c
00000230: 8b58 4dbe f83c e0bd 4cce 32be 84a7 fdbd
00000240: a86e 3bbe b553 6e3d 7d7b 35be 81e7 d0bd
00000250: 81a1 f03d 8ea3 6d3e 01df b63d 1fb3 4dbd
00000260: 9a14 ab3d 32cc 77bd c2b6 c83d 5084 503d
00000270: 31e9 f4be 5a74 973e 72f2 ffbc 8a88 c23d
00000280: 41f2 9d3d 2cc5 2a3d 8d41 aa3e e2af 4bbe
00000290: d481 d03d 9189 2abe e2c9 e2bd 3c30 14be
000002a0: 02c8 883e 8150 d53d 6fa8 c5bd 42d8 87bd
000002b0: 4234 7abe b543 a63c 113a 7abe 6bc1 1e3d
000002c0: b05b 873d b04c 0f3d 0999 3abe 1bd5 993e
000002d0: 4334 d7bd 76d7 31be b6f9 a1bd c8db 0ebd
000002e0: 8831 b63d 0dce a0bd e0b3 ecbc 0077 0e3d
000002f0: 88bf d23d c45d 363d a4f4 243e a437 a83d
00000300: fdb8 c4bd 25f2 0fbe 18da e2bc 79ce 20be
00000310: 3c90 2bbd 3074 95bc 9ccd cd3d 40ba 543d
00000320: c6b7 f0bd a457 59bd 3be4 a3bd 2c2e bfbd
00000330: c5bc ccbd 90a7 34bd c204 8a3d 245c 463d
00000340: fa58 1c3e 3c3e a73d 1752 0b3d 1c2f c4bd
00000350: d2f0 a8bd 1d10 7e3c a22b 41be 1742 c4bd
00000360: bf7e 903b 2316 c5be c3ae f53c 018d 8dbe
00000370: 5d0b 7a3e 6ad6 b33e c3ec 1f3e 4e31 e6bd
00000380: bc6c 123e 7d65 683c 5e8e a43e cf37 35bd
00000390: 6757 623d 2082 39bc 9246 013e 5546 60bd
000003a0: 0064 0abe 8ab5 eb3c 0795 18be af3a 47bd
000003b0: 0382 d83d e5ec d2bd f8bb cbbd 634b dc3d
000003c0: aceb 793d 5906 99bd 7c72 77bd fcee 463d
000003d0: a89d abbc 6f74 bebd 8ea6 0e3e 2ea7 bebd
000003e0: 356b 2abe 8e7b 0c3e 53a6 b3bd d086 67bd
000003f0: feca 843d 6a56 06be 17e1 b0bd 8012 f73a
-0.22942266 0.13528423 -0.027328923 -0.0768269 -0.14598693 0.07124013 -0.046274163 0.014365573
0.055376932 0.07843209 -0.15528445 -0.06470543 0.118601196 0.059586067 -0.014513561 -0.13387182
0.03539524 0.12916106 -0.23694435 0.17804934 -0.081771486 -0.15756561 -0.09423785 -0.040707715
0.075575024 -0.066102274 0.10676697 -0.0149383815 -0.08167792 0.15697315 0.097001776 -0.011012912
0.07600512 -0.09539364 0.0857949 0.12994222 -0.1083392 0.2516448 -0.051270247 -0.16705027
-0.2625745 0.042997893 0.10465205 0.23050019 -0.13216767 -0.11549037 -0.20008579 0.047810793
-0.16231748 -0.103703104 0.11372387 -0.08522089 -0.048074055 0.054036744 -0.11045016 -0.062262762
0.0039152717 0.07514459 -0.032951113 -0.25677618 -0.06691124 -0.1345717 0.039556026 0.030240819
0.05692552 0.05888772 -0.14281261 -0.10710606 0.005521968 0.15353155 0.014719591 -0.16683252
0.04018879 0.0008723885 -0.03619802 0.0676226 -0.14718293 -0.037696704 0.0029447824 -0.09721967
-0.15362325 -0.029885381 -0.07809173 0.05617465 -0.019003853 -0.075627506 -0.07803817 -0.122638196
-0.1648758 0.11894938 0.43712997 0.074355945 0.095807396 -0.09466008 -0.3504986 -0.055237986
0.0064306958 0.028094538 -0.18990606 -0.011182211 -0.21315926 0.14258772 0.092776224 0.25171226
-0.05586218 0.16826886 -0.2182755 -0.14298214 -0.10338002 0.18148872 0.02263699 -0.22619176
-0.0121555105 -0.054013636 -0.43607798 -0.20174274 0.0052563944 -0.014826193 -0.22443664 -0.17686372
0.36362496 -0.0033973155 0.021209134 -0.21013905 0.14061937 -0.046051186 -0.20461196 -0.08900686
-0.13872993 -0.0681159 0.052428626 0.01876992 0.19654614 0.08008378 -0.15020978 -0.06470515
-0.08449578 -0.031871848 -0.022207629 0.012949216 -0.20053308 -0.10949129 -0.17461509 -0.12385467
-0.18303931 0.058185298 -0.17722888 -0.10200406 0.117495544 0.23206922 0.08929253 -0.05021965
0.08353539 -0.06049747 0.09800483 0.050907433 -0.4783416 0.29580957 -0.031243537 0.09498699
0.07712222 0.041691944 0.33253136 -0.19891313 0.10181013 -0.1665404 -0.11073662 -0.14471525
0.26715094 0.104157455 -0.09651267 -0.06633045 -0.24433997 0.020295957 -0.24436213 0.038758676
0.06609285 0.034985244 -0.18222441 0.300454 -0.10508015 -0.17367348 -0.07908957 -0.03487757
0.08896166 -0.07851801 -0.028894365 0.034781456 0.10290438 0.044523016 0.16108948 0.082137376
-0.09605596 -0.14057215 -0.027691886 -0.15703763 -0.0418856 -0.01824388 0.100489825 0.051935434
-0.11753802 -0.053062096 -0.08002516 -0.093349785 -0.099969424 -0.044105113 0.06739189 0.048427716
0.15268317 0.08166167 0.034013834 -0.09579298 -0.08249058 0.015506771 -0.18864301 -0.09582918
0.0044096406 -0.3849345 0.02999056 -0.2764664 0.24418397 0.35124522 0.15617661 -0.11239873
0.14299291 0.014184353 0.32139868 -0.044242676 0.055259135 -0.011322528 0.12624577 -0.054754574
-0.1351471 0.028773088 -0.149006 -0.04863995 0.10571673 -0.1029909 -0.099479616 0.107565664
0.06101577 -0.07471914 -0.060411915 0.048567757 -0.0209492 -0.09299552 0.13930723 -0.09309231
-0.16642459 0.13719007 -0.08771958 -0.05652505 0.0648403 -0.13118902 -0.086366825 0.0018850118

encoder.0.bias f4 [128]
00000000: 4915 fdbc 474f 693d 5220 e3bd 3e3f 4e3b
00000010: 8785 bf3d dd03 a03c cc32 22bd dd1e cd3d
00000020: e894 113d ea98 a4bd 7492 a73d 581d 8a3d
00000030: 6712 c7bd 148f 58be e424 aa3d 498f 143e
00000040: 8504 0cbd 7f29 0fbe 3a1c 6ebc e694 183e
00000050: 2e93 41be 7f33 a43b a440 86bb b1a8 c53d
00000060: 7052 febd 84ce 05be 7852 3a3d 404d dc3c
00000070: 989a b0bd 82df a5bd c94f 1bbe 438e c6bd
00000080: bf14 2a3e e046 16be 9860 eabc 2028 ec3d
00000090: c20d be3d a5ff b23c 21b1 eabd cc6e 563d
000000a0: e386 193e 003b 4f3b d849 3c3d 4920 31bd
000000b0: 932b 04be 83e4 26be bffc d6bc e0c3 313d
000000c0: 2afc f13d d774 093d 20ef c2bc b3a0 d3bd
000000d0: 088f da3c 423e 90bd dfab cebd 90f6 0fbd
000000e0: f4a1 fd3c bded c7bd 94cf c83d a2c2 ba3d
000000f0: 4ed4 153e 6eac 3abc deed c1bd 3395 df3d
00000100: 80f2 a1bd 2646 293e fa3f 283e d7ea 573d
00000110: 7bf0 273d 25f9 8c3d 51d2 293d 4143 2e3d
00000120: c108 29bd 7ce4 c3bd e74d 8cbd b4ac 2ebe
00000130: 1a14 143d 3b0b f4bd fbdf 533d b909 6dbd
00000140: 15dd e03c 908d d63c 4040 463d 6d6c fe3c
00000150: 94bd b73b f35a 1bbe a117 733c 2852 fe3d
00000160: 0d82 97be 39b9 13be 7ba1 10bd d0bd 17be
00000170: 3d72 10be 62f5 123e 9974 b93d d217 f5bd
00000180: b79e a7b8 609a 2fbe 8c04 b23b 4145 9fbd
00000190: f3cb f9bd 87ba 5b3c 3407 c33c 09fa 24bd
000001a0: f0ee a13c cb8c e3bd 0783 eebd ad11 da3c
000001b0: 8213 1bbe dba7 d63d 1644 313e 26a0 423e
000001c0: 719b bb3d 777f 7d3d 323f 213e ce24 0e3e
000001d0: b92d 60be 768e 9b3d 1959 34be 3393 11be
000001e0: 4b97 8f3d b441 213e 840d 07be b052 c0bd
000001f0: 36e8 bfbd 6766 b3bd c4c2 263e 5b11 86bd
-0.030893939 0.05696037 -0.11090149 0.00314708 0.0935164 0.019533092 -0.039599225 0.10015652
0.0355424 -0.080369785 0.081822306 0.06743878 -0.09720307 -0.2114833 0.083078176 0.14507784
-0.034183998 -0.13980673 -0.014533097 0.1490055 -0.18903801 0.0050110216 -0.004097061 0.09651316
-0.124180675 -0.1306706 0.045488805 0.026892304 -0.086232364 -0.08099271 -0.15167154 -0.09695103
0.16609477 -0.14675474 -0.028610513 0.11531091 0.09279968 0.021850416 -0.11459566 0.052351758
0.14992861 0.003162086 0.04596886 -0.04324368 -0.12907247 -0.16298108 -0.026243566 0.04339969
0.118156746 0.033558693 -0.023795664 -0.10333385 0.02667953 -0.07043125 -0.100913756 -0.03514725
0.030961014 -0.09762142 0.098052174 0.091191545 0.14631769 -0.0113936495 -0.09469198 0.10917129
-0.07907581 0.16530666 0.16430655 0.052714195 0.041000824 0.06883458 0.04146034 0.042544607
-0.041268114 -0.09565064 -0.06850796 -0.17058069 0.036151983 -0.119162045 0.051727276 -0.0578706
0.02744917 0.02619055 0.048401117 0.03105756 0.0056073163 -0.15171413 0.014837177 0.12418014
-0.29591408 -0.14426126 -0.03531025 -0.14818501 -0.14106078 0.14351419 0.09055442 -0.11967434
-7.9927435e-05 -0.17148733 0.005432671 -0.07776881 -0.12197103 0.013411171 0.023807146 -0.040277515
0.019767255 -0.111108385 -0.11646085 0.026619757 -0.1514416 0.10481235 0.17311129 0.19006404
0.091605075 0.061889138 0.15746763 0.13881227 -0.21892442 0.07595532 -0.17612113 -0.14216308
0.07011279 0.1574772 -0.1318875 -0.093907714 -0.093704626 -0.08759766 0.16285235 -0.06546279

encoder.2.weight f4 [64, 128]
00000000: de7b 593d cdb0 513e 102f aa3b 5dce b83d
00000010: 414f c6bd e6b7 5c3d 18ec ff3c ad1c 08be
00000020: 121d d9bc be17 5a3d 2e58 8dbd 4064 7c3b
00000030: b016 ea3c e2b5 a9ba 2fbd 01bf 04f2 3dbf
00000040: 2514 18bd 15a7 5cbd 27a8 b03d d85d a8be
00000050: c988 babd f49c 1a3d d255 9d3e 684c 80bb
00000060: 7689 133d 1d11 fd3d fa7d 213d f170 9a3e
00000070: 6a8e 5f3d 4fed 1b3f 4034 603c e5d8 803e
00000080: 53c2 453c 3a96 3bbd 8357 22be 0c72 32bd
00000090: f270 01bd f008 9c3e ec19 52bd 6bb6 85be
000000a0: ab7d 8fbd 3eb0 4b3d 43e9 853d 128f 593e
000000b0: 439f 4abe 3dce b5bd 7531 923d d37b 9f3d
000000c0: 98db 35bd 62b5 1f3d de3c 6d3d 3d66 14bd
000000d0: 3934 ab3d 9ae3 753d 70cc dabd 477f 1fbf
000000e0: 81ee 243d d34c b13d a32e 903d 22a5 66be
000000f0: 8ec3 613d 66e3 b23d c973 f93e d31a c23d
00000100: 26dd 75be 1b47 66bd 4839 d4be aec6 523a
00000110: 4afd 4f3d a042 75bd b90b a63b a386 04bd
00000120: b90e 413f 3271 343f 6317 8a3d 2c00 053d
00000130: 571a 1fbd 902e 59bc d35c 193c afc6 713f
00000140: d223 afba f394 a13d 005c bfbc 3aa9 18ba
00000150: 9d8a 193e e816 b63c 5b8d 00be a039 1dbd
00000160: 13ac 773f ade3 b0bc 614d e43d 834e 883d
00000170: 114e f2bb fb82 983d bce1 013f 03b1 0f3d
00000180: d4cb a23c 270f e4be 9b81 1a3f 6151 83bf
00000190: ff18 a0bd 603d a1be 1402 b13d ae55 c1bc
000001a0: b0c1 22bc a605 403d c805 4dbc 3dd7 9ebc
000001b0: ab15 a6be c2fb 9cbe f4d1 9b3e 77b0 13be
000001c0: 0fd1 7c3c 3b3d 8abb b02f 11bc 89b0 c23f
000001d0: aa4e a43d c146 573e 645a aabc ee92 1c3e
000001e0: 9d4e 86be a185 6a3e 5e3e a8bd 9cd6 0abd
000001f0: 13f9 2e3e 19d8 86bd 593f 64bd 5d5e b6be
00000200: 83f3 3fbd 9758 92bd f270 98bd 03d6 853d
00000210: 3a55 8f3d 96e9 893e d2a0 1b3d 1e99 44bd
00000220: 801f 15ba 1524 9a3d 56ae 7c3b 4296 f8bc
00000230: 0196 1d3e c594 c3bd 1b43 0240 01ba d2bd
00000240: fbeb 65be 49e2 993d c2fe 6bbd 0096 bd3d
00000250: b594 a13d c3e2 48be f0aa 2abe f26b ea3c
00000260: 1500 a63d 2d4c 50be 4b5a 23bd 266d 2bbf
00000270: 6087 743c 5d55 8e3e 52cf 503d 1c3e 8e3e
00000280: 5ec0 b13d ad8c cd3c 3d1a be3e 6155 8abd
00000290: a2e5 743e e5fe d5bd 3eea d83d c346 a5bd
000002a0: 7189 1ebe 17db a7bd f929 983d eaf7 18bf
000002b0: f2de cbbe a008 c33d 1abe d3bc 7a98 623d
000002c0: e808 4d3d 9ab8 70be 6678 2ebd be2b 5d3d
000002d0: c207 f4bc 6ef5 09bd d248 213e 89bf eebe
000002e0: 6c51 ccbc 14e4 30bd 769d c639 5e2d 073f
000002f0: 8eda 1f3d b7f0 123e 6a12 2abc 9b68 243e
00000300: c707 543e 06c5 563d 8d4d 923f 8855 83bd
00000310: 3ee2 96bd 75e2 333e 1e9b 9fbd 335f 353d
00000320: bd4b 943e a299 353e 5ccd a83d 2030 bdbb
00000330: f572 923d a0de 03bd 2582 933e d69b 8c3e
00000340: 0811 d5be ca2b 753d 283d 2d3d 4595 2c3d
00000350: f106 06bb 49bd b03d 54f9 37be f9f2 b93d
00000360: 622b 903f 01e6 80bd e984 dcbd 8003 6abb
00000370: 4e9a 503d 9027 d6bb 56a3 943b b58c a73d
00000380: cfe0 e73c cf50 2cbe d57c f83e 6879 cbbe
00000390: 40c3 9d3d cb5c 90be 1a9d 9dbd 7117 b4bd
000003a0: bbbd aa3d a97a ec3c 1dbb 91bd 1f82 4cbb
000003b0: b665 8b3e 5d49 11be 17d9 c63d a22a 053f
000003c0: 117a d03c d4e6 c53d bf46 2ebd af6f 063f
000003d0: 5f7e de3d 9417 93bd 7206 23bd 88c7 dbbd
000003e0: 940e 8dbc 417d 8b3e 929e 55be 4089 92bb
000003f0: 97b4 183e 9f31 1fbe 0239 763d d4aa 0f3e
0.053096645 0.204776 0.0051935986 0.09023736 -0.09683085 0.053886317 0.031240508 -0.13292189
-0.02650312 0.0532453 -0.069015846 0.0038511902 0.028575271 -0.0012947882 -0.50679296 -0.7419741
-0.037128586 -0.05387028 0.086258225 -0.32884097 -0.09108121 0.03774734 0.30729538 -0.0039153583
0.036019765 0.1235678 0.03942678 0.30164292 0.054579176 0.6090898 0.013684332 0.25165477
0.012070256 -0.045797564 -0.15853696 -0.043565795 -0.031601854 0.3047557 -0.051294252 -0.26115736
-0.07006391 0.049728625 0.06538632 0.21245983 -0.19787316 -0.088772275 0.071383394 0.077872895
-0.044398874 0.03899134 0.057919376 -0.036230315 0.0835957 0.06003151 -0.106835246 -0.62303585
0.040266518 0.08657231 0.07040145 -0.2252393 0.055118136 0.08734779 0.4872115 0.094777726
-0.24010143 -0.056220155 -0.41449952 0.000804047 0.050778665 -0.05987799 0.0050673154 -0.032354962
0.7541309 0.7048522 0.06742742 0.032470867 -0.03884348 -0.01325573 0.00936051 0.9444379
-0.0013362116 0.07889738 -0.023359299 -0.00058235566 0.14994283 0.02222772 -0.12553923 -0.038385034
0.9674694 -0.02159294 0.11147571 0.066556 -0.00739456 0.074468575 0.5073507 0.03508092
0.019872583 -0.4454281 0.6035401 -1.025921 -0.078172676 -0.31492138 0.086429745 -0.023600426
-0.009933874 0.046880387 -0.012513585 -0.019389743 -0.32438406 -0.30660826 0.3043362 -0.14422785
0.015430703 -0.004218725 -0.008861467 1.5210124 0.080228165 0.21023084 -0.020795055 0.15290424
-0.26231852 0.22902538 -0.082150206 -0.033896074 0.17087202 -0.06584186 -0.055724476 -0.35618868
-0.04686309 -0.071458034 -0.074434176 0.0653496 0.069986776 0.26936024 0.037995167 -0.047997586
-0.0005688593 0.07526413 0.003855606 -0.030345086 0.15389253 -0.0954986 2.0353458 -0.10289384
-0.224533 0.075138636 -0.057616003 0.09257126 0.07889692 -0.19617753 -0.1666677 0.028615925
0.081054844 -0.20341559 -0.039881032 -0.6696342 0.014924854 0.27799502 0.050978966 0.2778176
0.08679269 0.025091494 0.37129393 -0.06754566 0.23915723 -0.10449008 0.10591553 -0.08070137
-0.15482117 -0.08196085 0.07429881 -0.59753287 -0.3981853 0.095231295 -0.025847483 0.055321194
0.05005732 -0.2350792 -0.04259529 0.053996794 -0.029788855 -0.033681326 0.15750435 -0.46630505
-0.024941169 -0.043186262 0.0003788282 0.528036 0.03902679 0.14349638 -0.010380367 0.16055529
0.20706092 0.05243399 1.1429917 -0.06412798 -0.07367371 0.17566855 -0.07793258 0.044280242
0.28964034 0.17734388 0.08242294 -0.005773559 0.071508326 -0.032194734 0.2881023 0.27462643
-0.41614556 0.059856214 0.04229465 0.042134542 -0.0020450915 0.08629853 -0.17966205 0.090795465
1.1263239 -0.0629387 -0.10767538 -0.0035707653 0.050928406 -0.006535478 0.0045360727 0.081811346
0.02830544 -0.16827701 0.4853274 -0.39741063 0.077032566 -0.28195795 -0.0769598 -0.087935336
0.083369695 0.028867083 -0.07115767 -0.0031205488 0.27226037 -0.14188142 0.09709375 0.5201818
0.02544883 0.096631676 -0.042547937 0.52514166 0.10863947 -0.071822315 -0.03980107 -0.10731417
-0.017218865 0.27244 -0.20861271 -0.004471928 0.1491264 -0.15546273 0.06011296 0.1403001

encoder.2.bias f4 [64]
00000000: e425 833b 9ac1 e33d 5f5a ad3d cade 65bc
00000010: 0e0b a0bd eb2f 71bd a7da 5fbc dc7c f53d
00000020: 2465 4abc 48d0 113d 1595 fbbc 208e fdbc
00000030: 2207 86bd 8269 c73b 9dff 0dbc b06b 603c
00000040: a8ca 93be 47bb f3bc c168 b9bc 3dab d4bb
00000050: 457d dc3c 3fc2 2cbd 0846 67bd 83e0 bebd
00000060: e469 a5bd ccd1 cf3d 35f2 2a3d f632 c9bd
00000070: 911b bcbd 789d b1bd ac47 d0bd fb95 52be
00000080: ed18 b93d 5ab1 b1bc 49b9 b4bd 5584 4c3b
00000090: a42b df3c c0b1 e73b 1152 61bc 5371 9dbd
000000a0: 3d77 d5bb 03a6 513d 2b9e 33bd 61c2 953c
000000b0: e63d 79bd e754 8ebc a637 87bc 2133 adbd
000000c0: 4284 b1bc 872f 823d f894 a13d 6a65 2c3d
000000d0: 671f 86bb b9b1 02be 8e0f 843c 3ebd 0c3a
000000e0: dd0a 40bd 1910 1bbd aa5b 723c 635c 19bd
000000f0: e10c b83d c18e b83a ed80 9d3d a68d 7d3c
0.0040023196 0.11120911 0.084645025 -0.014030168 -0.078146085 -0.05888359 -0.013662971 0.11986706
-0.012353215 0.035599023 -0.030710736 -0.03095156 -0.06544329 0.0060855756 -0.0086669 0.01369755
-0.28865552 -0.029752387 -0.022632958 -0.0064901398 0.026915202 -0.042177435 -0.05646327 -0.09320166
-0.08076838 0.101474375 0.041734893 -0.09824173 -0.091849454 -0.08672613 -0.1016992 -0.20565026
0.09037957 -0.021691013 -0.08824403 0.0031206806 0.02724249 0.00707075 -0.013752476 -0.076876305
-0.0065144585 0.05118371 -0.043852013 0.018281164 -0.060850047 -0.017374469 -0.016506027 -0.08457018
-0.02166951 0.06356721 0.07889742 0.042088903 -0.004093099 -0.12763108 0.016120698 0.00053687755
-0.04688536 -0.03785715 0.014792362 -0.037441622 0.089868315 0.001408063 0.07690606 0.015475666

encoder.4.weight f4 [32, 64]
00000000: 6005 803e 1643 15be 56b1 b4bf c412 debd
00000010: bd4d 58bd c8c7 dfbd 46f0 293e fe58 04bf
00000020: ac49 debe 488b 45bf 33f1 ad3d 5397 b3bc
00000030: 983f d23c 4672 d7bd c823 dfbd 5a10 ef3e
00000040: 2ea2 c7bd 0162 f9bd 5f30 bd3d 62b8 8e3d
00000050: 97b7 9bbd 1806 473d e829 4bbd d0f1 0b3c
00000060: 4ed4 f6bd dbfd 55be ecf7 333e 0f43 833c
00000070: 7a1a a13d f405 f5bd 100a c3bd b651 443c
00000080: 6bb6 f7be 4b2d a7bd 26b9 e8bd 805d 093c
00000090: be9f c7bd 4548 f3bd 9abd fdbd ac43 47bd
000000a0: d23d 933d 487a 973e a8d9 ba3d c25e d7be
000000b0: f601 c23c fa88 99be 07ce 3fbd b7a0 843e
000000c0: 5658 c63c 0ee7 5dbe e6a2 62be ed51 803d
000000d0: f844 7abd 8ddf 75bd 1425 a13c 590b 52bd
000000e0: 68da 9bbd c5e6 59bc 5128 733d d062 de3e
000000f0: c334 e53d e609 93bd c74f b53e 87c2 923d
00000100: 0093 1dbd 239a 46bd 11e1 d2bd 533d 613d
00000110: dc13 d2bc 6644 d03d 545b 3c3d 639b 4cbd
00000120: 59bb fdbc c396 4f3e 441a 09be 14b2 dbbd
00000130: 1ca1 84bd 40b7 16bd 2bbf b83d 9c19 c73d
00000140: bcb0 1ebd bc8b 893c 91fc 36bd cc39 9d3e
00000150: 6855 0d3d 9bb9 703d 7e60 c6bd 04d2 fe3d
00000160: 57cb f1bb 28d5 783d 3614 86bb 6033 dfbb
00000170: 9634 09bd ded9 c9bd 3334 fc3c 0a83 4bbd
00000180: be95 9f3d d758 97bd 9800 043d e58a c0bc
00000190: dd2f 42be e4b2 7c3c d676 f9bd c432 7abd
000001a0: 99ab 833c 7be7 c7be 854a 5dbd caf4 2f3f
000001b0: 92a6 833d 9aa1 e23c 5394 83bd 1812 9bbd
000001c0: a2d8 833d 8bf7 3d3e e22d 933e 1dbf 593d
000001d0: e942 9abd 1e8b 0e3e 784d d63d 58fe f43c
000001e0: 5c0b 083d e770 c63d 8fb9 703e 9616 413e
000001f0: 89eb d83d 4741 913d 87b0 28bf 6b47 ae3d
00000200: b14b 04bf e24e c83c c3c0 85be e18e c43d
00000210: 81b7 343d 40c7 8fbd 63da ff3e f4c0 8bbf
00000220: 8dfb 293e 27b4 7b3e 0338 eebd 8e21 f6bc
00000230: c87a ae3d a1c5 8dbc eb76 bdbc e8ca 7f3f
00000240: 98b1 c1be be27 483c 919b 0fbd f63b dabd
00000250: 1d34 17bd 0422 243d a0ff e9bc 60f3 2b3d
00000260: 0e15 c3bd 295a 52be 666b 37be 01c4 893d
00000270: 6956 12bd 7e0f 723d 98e4 1d3d c941 f03d
00000280: f17f c43e 18b4 e43c 84a1 753d 4a38 bfbd
00000290: 89ea fcbe 6997 933d f268 0bbe 98d6 79bd
000002a0: 8d16 31bd 4487 1c3f 4548 9f3d 7514 af3e
000002b0: a398 78bd 1adf 6ebc 1b1f e7bd 8542 283e
000002c0: e1ef 7b3d 0493 2abf b9d1 1cbe 7fc7 dbbe
000002d0: 4a57 52ba 171e 35bd fb8a 933b 06ea 8abc
000002e0: 5a76 9ebd 1796 853d 148c 3d3e 91ee 11be
000002f0: 5de9 0e3e 023c f2bc b18f 0ebf 2d75 f1bd
00000300: 6e69 9fbb 70d4 c3bc 0c15 293e 511d 92bd
00000310: e919 85bd 7341 823d ca30 343e baf4 4f3d
00000320: ad9c 4f3e d649 fcbd 3e11 233b 453b a63d
00000330: a3b9 683d 283f a63d c853 9ebd a1ca 1bbb
00000340: 4538 853d f7c6 aebc ff69 363d 26e4 883c
00000350: 034d 9dbd 6a66 b33d 731a 85bd 003f 9ebd
00000360: 9dbf b63d f19d 463e 8f8a 08be 7585 163e
00000370: 9fba edbd 65ab ec3b 3ec4 a7bd ed4a a0bc
00000380: a8f0 503d 0530 01bb e038 9f3d 413e 9f3d
00000390: 90a4 b8bd d8df 0fbe ce46 fdbb 4ff8 e83d
000003a0: 5a50 eabd 1309 86be a246 92bd ecc3 34be
000003b0: f98e e3bc b2b0 803e 3128 8c3d ec5b debe
000003c0: 886a 3a3d 4aa2 a3bb 20f7 a3bc 57cb 4a3e
000003d0: a16b e8bd f383 153d 7a72 cbbc 5b6a acbd
000003e0: 7639 ee3d d1e1 a53d e8d0 adbd 3682 19be
000003f0: 6be7 8dbd fd72 133d f19e 2c3e c02f 4c3d
0.250041 -0.14576373 -1.4116619 -0.10843423 -0.052808512 -0.10926777 0.16595563 -0.5169829
-0.43415582 -0.7716565 0.08493271 -0.021922743 0.02566509 -0.10519843 -0.108954966 0.46692163
-0.0974773 -0.12176896 0.09237742 0.06968762 -0.07603376 0.048589796 -0.04960051 0.008541539
-0.12052213 -0.2089762 0.17575043 0.016023187 0.07866378 -0.11964026 -0.09523404 0.011982372
-0.4838136 -0.08162936 -0.11363439 0.008384109 -0.09747265 -0.11879019 -0.12389679 -0.04864852
0.07189526 0.2958548 0.09123546 -0.42064482 0.023682576 -0.29987317 -0.046827342 0.25903866
0.024212044 -0.21670172 -0.22132453 0.06265626 -0.06110093 -0.060027648 0.019671 -0.051280353
-0.07610017 -0.013299649 0.05936462 0.43434763 0.11191704 -0.07179622 0.35412428 0.071660094
-0.03847027 -0.04848684 -0.10296834 0.054990124 -0.025644235 0.10169296 0.045985535 -0.049952876
-0.030973123 0.20272355 -0.13388926 -0.10727325 -0.06476042 -0.036795855 0.090208374 0.097216815
-0.038742766 0.016790263 -0.04467446 0.30708158 0.034505278 0.058770757 -0.09686373 0.12442401
-0.0073789763 0.060750157 -0.004091765 -0.0068115443 -0.033497415 -0.09856008 0.03078661 -0.049685515
0.07792233 -0.07389992 0.03222713 -0.02350373 -0.18963571 0.01542351 -0.12180869 -0.06108357
0.016073035 -0.39043793 -0.054026145 0.68732893 0.06428255 0.027664948 -0.06424775 -0.075718105
0.06437804 0.18551461 0.28745943 0.053160775 -0.07532293 0.13920256 0.10463995 0.029906437
0.03321396 0.09689503 0.23508285 0.18856272 0.105918 0.07092529 -0.6589436 0.08509716
-0.51677996 0.024451677 -0.26123628 0.095975645 0.044120315 -0.07020426 0.49971303 -1.091826
0.16599865 0.24580441 -0.11631777 -0.030045297 0.085195124 -0.01730615 -0.023127994 0.99918985
-0.37830806 0.0122165065 -0.03506047 -0.10655968 -0.036914933 0.040071502 -0.028564274 0.041980147
-0.095255 -0.20542206 -0.17912063 0.06726838 -0.03572694 0.059096806 0.038548082 0.117312975
0.38378862 0.027917907 0.059968486 -0.09336908 -0.49397686 0.072066136 -0.13614252 -0.06099567
-0.043234397 0.611439 0.07777456 0.34195295 -0.06069244 -0.014579559 -0.1128523 0.16431625
0.061508063 -0.6663058 -0.15314378 -0.4292564 -0.00080238713 -0.04421815 0.0045026517 -0.016957294
-0.077374175 0.06522768 0.18510467 -0.14251162 0.13956209 -0.02956963 -0.55688006 -0.11789928
-0.004864863 -0.023905009 0.16511935 -0.07134498 -0.064990826 0.0636014 0.17596737 0.0507705
0.20274611 -0.123187706 0.0024882103 0.081167735 0.056817662 0.08117515 -0.07730824 -0.00237719
0.06504873 -0.021335108 0.04453468 0.016710352 -0.076807044 0.08759768 -0.064991854 -0.0772686
0.08923266 0.19396187 -0.13334106 0.14699347 -0.11607861 0.0072225803 -0.08191727 -0.019566977
0.051010758 -0.001971246 0.0777452 0.07775546 -0.09015763 -0.14050233 -0.007729388 0.11375486
-0.11441107 -0.26178798 -0.071423784 -0.17652863 -0.027778136 0.25134808 0.068436034 -0.43429506
0.045511752 -0.0049937116 -0.0200153 0.1980413 -0.113486536 0.03650279 -0.02483486 -0.08418723
0.116320536 0.08099712 -0.08487111 -0.14991078 -0.06928905 0.035998333 0.16857506 0.049850225

encoder.4.bias f4 [32]
00000000: eb79 ca3d 5fc7 433c 56e8 d43e d5c5 353e
00000010: 6c64 b6bd a657 403d f97b 913c de5b 0e3d
00000020: 25d0 1b3d fa91 c9be 6d19 dc3d d2c3 bdbd
00000030: 7255 c7bd add2 07be c1b9 2bbc 2afa 103d
00000040: 5db3 833e 82c2 3b3d 1a6a 2dbe 409b 9a3d
00000050: 4d24 9fbc cf2f 0c3e 5580 d8bd 56a2 b53d
00000060: ae26 f63d 5299 8bbe 64d7 d23d 53fd c53d
00000070: 8029 413e c854 9dbb 73c3 f7bd d0e9 cc3c
0.09886535 0.011949389 0.41583508 0.17751248 -0.08905873 0.046958588 0.01775931 0.03475558
0.0380403 -0.39369184 0.10747037 -0.092658654 -0.09733094 -0.1326396 -0.010481299 0.035394825
0.2572278 0.045839794 -0.16935006 0.07549143 -0.01942649 0.13690113 -0.105713524 0.08868854
0.12019096 -0.27265412 0.10294989 0.096674584 0.18863487 -0.0048013665 -0.12097826 0.025013834

encoder.6.weight f4 [16, 32]
00000000: 888e 9c3d cc20 383c 9833 87bd 4385 d5bd
00000010: 5edd c2bd 8000 b0bd c7ac 0d3e d0d5 f7bb
00000020: a0b3 acbb 1acf e4bd b8b5 643d ba9c b33d
00000030: 7718 1dbe a5e1 fabd 28a2 19be 48dd 87bd
00000040: e722 ddbd 40ae 953d d910 73bc 9942 533d
00000050: 02a3 ab3d cbd1 38be 65fc 0b3e 2d59 33bd
00000060: 6060 ad3d 7880 adbd b9bb 983d d51e 2e3e
00000070: d522 29be 2f46 95bd 7ed7 6fbd d633 983d
00000080: 8693 82be ec78 863c cb43 d6be 1a7a 583e
00000090: 7999 003d efc6 34be 817a c83d 2bc0 30be
000000a0: f7bd ac3e 207b 84be 2b41 5f3e 0207 c43d
000000b0: a675 c73d e67a fe3d 4a65 993e ad1f 1a3e
000000c0: 5336 a73e 90a0 3abe 0ed9 993d eec7 b7bc
000000d0: 3440 d7bd db7f 933c 0b76 c8bd 4420 c23c
000000e0: 6344 823e fd47 6c3e 2107 cabb 0536 113e
000000f0: 67ca d93d d0a2 f7bc 9490 8cbd a0eb 88be
00000100: b9a0 f7bc 8f82 393d 416c 063f 2024 babc
00000110: 515e e8bd 3804 a9bc 0104 293e d37d eebd
00000120: 0af0 bb3d e6b6 0cbe 70b8 29be e2b4 c93d
00000130: 80ac cbbc 8dcd bc3d db79 443c b2c5 9e3d
00000140: f7c3 303c e572 b5bd 2f14 09be c37d 66bd
00000150: 9840 17be 08a2 553e 1607 1abe 0998 133e
00000160: 95ef 2cbc 335c 873c 0888 cdbd a20b 403d
00000170: 46b9 a43d 9cf1 2d3d a040 333e dd5f 97be
00000180: ef83 bf3c dbea a9bd 53e8 1abe a7c7 67bc
00000190: 80c8 c23b 2f51 dbbd 9cdb 623d 9384 84bd
000001a0: 0291 993d a875 193e f98d a73d 28df 9e3c
000001b0: d0cc 11bc a4e5 17bb 1f04 febd ec82 b4bd
000001c0: d891 eb3c 2e61 993d bfd3 dd3d ef11 98bd
000001d0: 8b8f b3bd e701 93bd 207d ef3b b79a b0bc
000001e0: 71c8 40be 38c4 893d e328 673d 4db8 67bd
000001f0: 6b25 3bbe 827a e63d 3b2e 313e d740 1c3d
00000200: 84dc d9bd e904 e7bd 58fc 1cbd c929 953c
00000210: 9874 4bbd 94a5 2b3d f299 a63d 4737 1fbe
00000220: 91a2 80bc c742 693d 1e6c 25be 48f5 95bc
00000230: e2bb da3d 0f94 1ebe 2023 b63d 1774 1dbb
00000240: 6b03 f4bd 5624 dc3d 20cb 7c3c 54dc d33c
00000250: 28a5 a03c f5e3 9cbd 4e9a ad3d 9c67 fbbd
00000260: f557 eebd 2ef4 0d3e af60 08be d40f 01be
00000270: 00fc 613d c844 c3bc a0d3 853b ea8f dfbd
00000280: c800 89bd 50d8 24bd 8090 0bbc 1b4f 25be
00000290: 6e41 b83d 721f a93d d858 773d 9d0c 9a3d
000002a0: 248b 01be 46f3 9c3d 00a8 fc3d 7da1 1dbe
000002b0: 98e2 833c 68c4 403d c521 60bc 0cdc 47be
000002c0: c8c8 773d 50c4 e13c 5434 683d c236 72bd
000002d0: 5e5f 973d fada efbd 44af d8bd 5f70 37bd
000002e0: ecc4 28bd 0e8c ea3d ec3c a5bd 20ab 813c
000002f0: 3613 97bd 063a e8bd 3cb2 713d 774a babc
00000300: 59ad 7dbd 3aec 20be 50f6 ec3d a7a3 1dbe
00000310: c0b0 8e3d 10cb 1b3c e6c4 f1bd 8cf3 c93c
00000320: 530a eebc a091 28be 4491 ccbd 0969 bebd
00000330: 00f6 363d f864 a7bd fc4e 96bd 745d 34be
00000340: 8bb5 f5b9 2c37 1dbd a93f ccbd 20b1 a4bc
00000350: 0ae3 febd 437b c3bd 5cf4 693d 4524 0a3e
00000360: 70e1 bfbd c996 223e 76ec a83d 29de febc
00000370: 3c82 843d 6ca2 a9bd 16ff 0bbe 7052 bebd
00000380: ba38 b8bd a289 1a3e 4063 9ebe d5ad b5bd
00000390: 16c3 fbbb 85ec 62bc 374e ac3d 43d1 6cbe
000003a0: dc08 a93e b4f2 a0be 3b7b 4abc 4e55 293e
000003b0: 8c4d 5dbd 2194 8d3f 8d61 62be 0186 0bbd
000003c0: 2d4a 303e 9529 833d f851 5ebd 1b0c f23d
000003d0: 89c9 9e3d 8e07 92bd 56f3 833d 891e 663e
000003e0: 53d9 c53d 9615 3dbe e903 793e be5e 54bf
000003f0: a361 30bd 8bcd 113c cb41 833d 726c 37be
0.07644373 0.011238288 -0.066016376 -0.10425808 -0.09514879 -0.08593845 0.1383544 -0.0075633302
-0.0052704364 -0.11172314 0.055837363 0.087701276 -0.15341364 -0.122500695 -0.15003264 -0.06634003
-0.10797673 0.07308626 -0.01483556 0.051577184 0.08380701 -0.1804878 0.136705 -0.043786217
0.08465648 -0.08471769 0.0745768 0.17003949 -0.16517194 -0.07288777 -0.05855512 0.07431762
-0.25503176 0.016415082 -0.41848597 0.21140328 0.031396363 -0.17654012 0.09788991 -0.17260806
0.33738682 -0.25875187 0.21802203 0.09571649 0.097392365 0.12425785 0.2996009 0.15051146
0.32658634 -0.18225312 0.07512103 -0.022434201 -0.10510293 0.018005302 -0.0978814 0.023697026
0.254428 0.23074336 -0.0061654006 0.14180763 0.10634308 -0.030229002 -0.068635136 -0.26742268
-0.030228006 0.045290526 0.5250893 -0.022722304 -0.113461144 -0.020631894 0.16505434 -0.11645093
0.09176643 -0.13741645 -0.16574264 0.09848954 -0.024862528 0.09218893 0.011991943 0.07752551
0.010788909 -0.08859805 -0.13386606 -0.05627228 -0.14770734 0.20862591 -0.15041766 0.14413466
-0.010555168 0.016523456 -0.100357115 0.046886094 0.080431506 0.042466745 0.17505121 -0.29565325
0.02337834 -0.08296748 -0.15127687 -0.014146722 0.0059443116 -0.10708844 0.055385217 -0.06470599
0.07498361 0.14986289 0.08181376 0.019393519 -0.008898929 -0.0023177648 -0.1240313 -0.08814034
0.028756067 0.07489239 0.10831403 -0.074252956 -0.08767613 -0.07178097 0.0073086172 -0.021558149
-0.18826462 0.06726879 0.056435477 -0.056572247 -0.18275993 0.11253835 0.17302792 0.038147774
-0.10637763 -0.112802334 -0.03832659 0.018208401 -0.04967174 0.041905954 0.081348315 -0.1554843
-0.015702518 0.05694845 -0.16154525 -0.018305436 0.10680367 -0.15486167 0.08893418 -0.0024025494
-0.119147144 0.10749118 0.015429288 0.025861897 0.019610003 -0.07660667 0.08476697 -0.12275621
-0.1163787 0.13862678 -0.13318132 -0.12603694 0.055171967 -0.023836508 0.0040840656 -0.10916121
-0.06689602 -0.040245354 -0.008518338 -0.16143458 0.08996855 0.08257951 0.060387462 0.07521937
-0.12650734 0.07663588 0.12336731 -0.15393634 0.01609926 0.047062308 -0.013679926 -0.19517535
0.060494214 0.02755943 0.05669053 -0.059134252 0.07391237 -0.11711688 -0.10580304 -0.0447849
-0.041203424 0.114524946 -0.080682606 0.01582867 -0.07376711 -0.11339192 0.05900787 -0.022740586
-0.061932895 -0.15715113 0.11570418 -0.1539446 0.06967306 0.009508863 -0.118051335 0.024652265
-0.029057657 -0.16461802 -0.09988645 -0.092973776 0.044668198 -0.08173555 -0.07339284 -0.17613775
-0.00046865302 -0.038382694 -0.0997308 -0.020103991 -0.12445648 -0.09544995 0.057117805 0.13490398
-0.09369171 0.15877832 0.08248226 -0.031111794 0.06470153 -0.08282933 -0.13671526 -0.092930675
-0.08995195 0.15091565 -0.30935097 -0.088710465 -0.007683168 -0.013850336 0.08413356 -0.23126702
0.33014572 -0.31435168 -0.012358482 0.16536447 -0.054029033 1.106083 -0.22107525 -0.034063343
0.17215796 0.064044155 -0.05427739 0.11818715 0.077532835 -0.07130347 0.06442897 0.22472586
0.09660592 -0.18465266 0.24317898 -0.82957065 -0.043061864 0.008899103 0.064090334 -0.17912462

encoder.6.bias f4 [16]
00000000: 4535 3dbe a3fa 8cbd 10f5 a5bd 7e8f 26be
00000010: 7308 49be 8bdc 4abe 72d3 1cbe 84c7 403e
00000020: 9775 8c3e 259a babd b6e1 67bc cc88 3c3c
00000030: 32a9 32be cf6a 973e ff88 5f3e 95b0 a43c
-0.18477352 -0.06883743 -0.081033826 -0.16265675 -0.1963213 -0.19810693 -0.15315035 0.18826109
0.27433464 -0.09111432 -0.014152935 0.011507224 -0.17447355 0.29573676 0.21829604 0.020103732

encoder.8.weight f4 [8, 16]
00000000: 963e b33c e3d9 81bd 0349 b9bc ab3c 293e
00000010: 2957 a5bd 3379 683e a18a 26be 6249 09bf
00000020: b4ca 833e eafe 443e cc46 4cbe 5d15 28be
00000030: 3c19 a2bc ae4c dd3e 2824 bfbd aa53 e7be
00000040: 1f01 1bbd f84a b63e 739d c4bd a1a2 2bbe
00000050: 7264 2ebe f165 65be c89d b0bc ecd0 d03e
00000060: b372 8b3e 0eda b3bd aa96 acbd c03c d8bd
00000070: 5f66 0c3e 1683 483d 235b 44bf ef20 7cbe
00000080: 6ec0 c43b 2fba bc3e 6890 1a3e ee8e 1d3e
00000090: 0c9a 233e 6e24 afbd d0a2 e53c e51d c33c
000000a0: fd4d b13e 8fc5 183e 29a8 0c3e 8f7e f23d
000000b0: 79aa 8dbd ab78 83bd 13e9 bcbf fd39 1a3d
000000c0: bebd 18be a204 613e dbf1 75be 4b1e 08be
000000d0: f770 1fbe 33b8 393e 6a37 ce3d 4eb5 d7be
000000e0: 3d82 9c3e 3757 bfbd 602e 48be 2731 053d
000000f0: acf6 9ebd e07a 653e c532 5cbf b16a 793e
00000100: b074 40be 9512 a7bd 1ab7 7a3e 2c8f dbbd
00000110: 10e7 89bd 0084 373d aa9e 313e b735 58be
00000120: df57 67be 9476 ec3d 18fd b03d 4878 0ebe
00000130: dc7d 7ebe 51cb ccbc 7be7 2e3d c0ef b6bd
00000140: a572 1dbe 0beb ea3d b119 8c3e 83ae 3c3e
00000150: 5b71 50be daf7 673e 3b6d fc3d 6fe6 ed3d
00000160: b7ed e33d 9ef1 ed3d d6d3 7fbe 9628 e4bd
00000170: 6075 03bd 5efe 7b3e 46d9 22bf 7ddb 893e
00000180: 9a04 38be 069a 34be 3598 6fbd b37a d13d
00000190: 014e 183e 530a 653d fdaf 613e 8b12 5d3f
000001a0: 8c56 47bb 6256 2ebe 3005 6d3d 2e05 5abe
000001b0: e605 593e 9380 003f 335a 2b3e c7a1 4cbe
000001c0: 9c3f 94bd 86a3 96be 9e6e 4d3e 1414 35be
000001d0: 60ee 1abd 0c84 d43d 3c70 2b3e 26ba 143d
000001e0: c059 8abe 00e3 9b3d a0f5 2f3e f8b8 0f3e
000001f0: 987f 0a3e 747b f2bd 6354 2dbd 7a8a 4c3d
0.02188043 -0.06340387 -0.022617823 0.16527049 -0.08073265 0.22702484 -0.1626382 -0.536276
0.25740588 0.19237867 -0.19948882 -0.164144 -0.019787423 0.43222564 -0.09333068 -0.45181018
-0.037842866 0.35604072 -0.096003436 -0.16761257 -0.17030504 -0.22402169 -0.021559611 0.40784395
0.27235946 -0.08781825 -0.084271744 -0.10558462 0.13710926 0.04895314 -0.76701564 -0.24621938
0.0060043847 0.36860797 0.15094149 0.15386555 0.15976733 -0.0855187 0.028031737 0.023817966
0.34629813 0.14919113 0.13736023 0.118405454 -0.06917281 -0.064195 -1.4758629 0.03765296
-0.14916131 0.21974424 -0.24018042 -0.13292806 -0.15570436 0.18136673 0.10069163 -0.42130512
0.30568114 -0.09342807 -0.1954894 0.03251758 -0.07761893 0.22410154 -0.8601497 0.24357106
-0.18794513 -0.08157841 0.2448391 -0.10720667 -0.06733525 0.04480362 0.17345682 -0.2111424
-0.22592114 0.115460545 0.08642024 -0.13913071 -0.24852699 -0.024999293 0.042701226 -0.089324474
-0.15375765 0.11470612 0.2736335 0.18425946 -0.20355742 0.22653142 0.123255216 0.11616217
0.11129325 0.116183504 -0.24983153 -0.11140554 -0.03209436 0.24608752 -0.6361278 0.2692527
-0.17970505 -0.1763688 -0.058494765 0.10228481 0.14873506 0.05591805 0.2203979 0.8635642
-0.0030416576 -0.1702514 0.057866275 -0.21291038 0.21193656 0.5019619 0.16733627 -0.19983588
-0.07238695 -0.29421633 0.20061728 -0.1768344 -0.03782499 0.103767484 0.16742033 0.036310337
-0.270216 0.07611656 0.17183542 0.14035404 0.13525236 -0.11839953 -0.042316806 0.04993675

encoder.8.bias f4 [8]
00000000: 9971 833e adff a43e 1159 2ebd 84c3 e9bd
00000010: 6ec8 5fbd a099 f83c cec7 08be c7ef 9cbe
0.25672606 0.32226315 -0.04256541 -0.11414245 -0.054634504 0.030346692 -0.1335747 -0.30651686

encoder.10.weight f4 [4, 8]
00000000: cd7e 0d3f 6cab 653d 075a 34bd 21c9 d53e
00000010: cea4 393c 14cd e83d 2943 8d3e ac06 53be
00000020: b7b8 96bd 408d 6ebd 9032 adbe ce20 e1be
00000030: 61dd 723e 7633 f6bd 2eea 363f e138 06bd
00000040: 0385 b23e 79d9 00bf 8943 9cbe 09a2 9ebe
00000050: eab0 7ebd 781f c1be d4b5 08bf 356c 7f3e
00000060: 0f20 7fbf 8a72 a4be 26fa 82be f0fb 1c3e
00000070: 2926 1e3e 2c48 1c3e ae9f 093d faf5 1cbe
0.5527161 0.056071684 -0.04403117 0.41755012 0.011330796 0.113672405 0.27590302 -0.20608014
-0.0735945 -0.058240175 -0.3382764 -0.4397034 0.23717262 -0.12021534 0.7145108 -0.032769088
0.34867105 -0.50331837 -0.30520275 -0.30982998 -0.062180437 -0.3771932 -0.5340245 0.24943621
-0.9965829 -0.32118636 -0.25581473 0.15330482 0.15444244 0.15261906 0.033599548 -0.15328208

encoder.10.bias f4 [4]
00000000: 7e2b 613e b316 133d 515f ba3d 9fc7 693e
0.21989247 0.03591032 0.091002114 0.22830056

decoder.0.weight f4 [8, 4]
00000000: 7b36 ec3e f83a cebe bbbf 12be fea2 2ebf
00000010: 84ef f13e 2b6f 77be 4ef8 22be 1216 0e3f
00000020: 8190 473e da9d 173f 697b b8be c441 7a3e
00000030: 6c2a eabe d153 7b3e cf87 18bf 85a2 9e3e
00000040: 5b28 cd3c 171e a9be 9eb1 0abf 6e62 153f
00000050: 8329 65be 252d e0be 95d5 8bbe a134 c3be
00000060: 928c 103f cd07 1a3f 4c99 eabd dbd7 88be
00000070: c446 9bbe 081b fd3d d046 603e 4862 9a3d
0.46135315 -0.40279365 -0.14330952 -0.68217456 0.47253048 -0.24163501 -0.15915033 0.55502427
0.19488718 0.5922524 -0.36031654 0.2443915 -0.4573549 0.24543692 -0.5958223 0.30983368
0.025043657 -0.3303077 -0.5417727 0.58353317 -0.22379117 -0.43784443 -0.27311388 -0.3812609
0.56464493 0.60168153 -0.1145502 -0.26727185 -0.30327427 0.123586714 0.21902013 0.07538277

decoder.0.bias f4 [8]
00000000: e1a7 0ebd 2122 60bd 1d17 a0be 339f e13e
00000010: 845c 473e e699 a53e 5de1 8dbd 406d 6abe
-0.03482807 -0.054720048 -0.31267634 0.44066772 0.19468886 0.32343978 -0.0692775 -0.22893238

decoder.2.weight f4 [16, 8]
00000000: 511d 163e c0f6 a9be d35e 62be 2379 c1bd
00000010: c898 9f3d b576 92be 000e cabc 1705 abbe
00000020: 3e2a 8a3e 3928 93be 495b c9be f67f 42bf
00000030: 67c6 113d 2f91 cabe 1e1f 773e a64f 693e
00000040: 50ae a3be c017 073e 3a54 f2bd 7bf9 8c3e
00000050: 1cab 4f3d c859 563e 3b8d 76be 669e 213e
00000060: b425 c23e ff63 6a3e 0b9f 0cbf c936 b33e
00000070: d42c b03e a70c d03e eb0f 7b3e d8ad 44bd
00000080: 27f4 dd3d 64fa adbd 8f20 b5be 8071 bc3e
00000090: 80cc 9d3d 5cc4 6bbe aa87 ad3e 5091 d33d
000000a0: 1597 debe 3462 233f 62a5 2abf 4277 4b3e
000000b0: 5611 07bf d7db e0be fcdc ff3e b901 8a3e
000000c0: aebc f2bd 7ff3 86bf 9485 7abe 103b 80bc
000000d0: 80b8 2c3e a80f f8be 36cd ad3e a1d1 21be
000000e0: 085d 50be 9592 1d3e 25cb 2dbe 7afb ba3e
000000f0: d484 3d3e fc9b 763d ac5e 793d 3249 743e
00000100: 2e31 5abd 4fbc 68bd 4da6 59bf 6da0 ddbe
00000110: 4f96 a63c 96a6 5c3e bea0 06bf a03a a1bd
00000120: 295f 9f3e 8467 b7be 3da3 303e ac9a 873d
00000130: e7c6 adbe e5b3 d93e 4377 c53d afdd 833e
00000140: 0639 51bf d751 4d3f ba29 c33e 0fda b83e
00000150: 2884 643e 8e0e 21be 0ca5 ebbe 7c10 48be
00000160: 445a 943e 4776 e4bd 944d 0bbf ed66 733e
00000170: edcb 4abe 09e5 4bbe 2cc7 333f 7aff 693e
00000180: 4b1e 6dbe cb9c bbbd e4eb 163d 0361 573e
00000190: a322 013f f7cf 903d 212a 50bb a886 bf3d
000001a0: ce11 3f3e 7bee 58be fcf1 c1bd 0bda 4ebe
000001b0: 54e8 50be 6d44 62be 12ca b2bd 9f12 9e3e
000001c0: 5f4b b93e 2883 8a3e 2c32 403e 4460 3ebe
000001d0: 9148 22bd cb10 383e 69d7 09be 37e7 9e3e
000001e0: 2976 c53e be50 6a3e e0fc 6d3e 945a a4bd
000001f0: ae8b 8f3e eaa7 e73d 0678 bcbe 2408 c43d
0.14659621 -0.33196068 -0.22106485 -0.09446933 0.077928126 -0.2860619 -0.024664879 -0.3340232
0.26985353 -0.28741625 -0.39327458 -0.759765 0.0355896 -0.3956389 0.24132964 0.2278429
-0.31968927 0.13192654 -0.11832471 0.27534088 0.050700292 0.20932686 -0.24077313 0.1578308
0.3791939 0.22889708 -0.5493018 0.35002735 0.344092 0.40634653 0.24517791 -0.048017353
0.10837584 -0.08495024 -0.35376403 0.36805344 0.07705021 -0.23024124 0.33892566 0.103304505
-0.4347464 0.6382172 -0.66658604 0.19869712 -0.5276083 -0.43917724 0.49973285 0.2695444
-0.11852394 -1.0543059 -0.24465019 -0.015653163 0.16867256 -0.48449445 0.33945626 -0.15802623
-0.20347989 0.15387948 -0.16972025 0.36519986 0.18507701 0.060207352 0.0608813 0.23856047
-0.053269558 -0.05682021 -0.8501938 -0.43286458 0.020335345 0.21547922 -0.52589023 -0.0787251
0.3112729 -0.35821164 0.1724977 0.06621298 -0.33940813 0.4252006 0.09641888 0.2575507
-0.81727636 0.80203 0.38117772 0.36103866 0.22316039 -0.15728208 -0.46024358 -0.19537538
0.28975117 -0.11155372 -0.5441525 0.23769732 -0.19804354 -0.19911589 0.7022579 0.22851363
-0.23156087 -0.09160765 0.036846057 0.21033101 0.50443476 0.07070916 -0.0031763392 0.093518555
0.18659136 -0.21184723 -0.09469983 -0.20200364 -0.20401126 -0.22096415 -0.08729948 0.30873582
0.36190316 0.2705319 0.18769139 -0.1859141 -0.039619986 0.17975156 -0.13461079 0.31035778
0.38566712 0.22882363 0.23240995 -0.08025089 0.28036255 0.11311324 -0.3681032 0.09571865

decoder.2.bias f4 [16]
00000000: d1cd 46be cf5d e5bd bff8 be3e e862 aebe
00000010: 4265 81be 80d2 653c d362 023e 4904 b43e
00000020: 4f0d cf3e a43d 743d 51f9 c2be 3289 ae3b
00000030: 3e5c 613d 6ce7 c9bd 4264 f03c 037b 093e
-0.1941445 -0.11199533 0.37299153 -0.34059834 -0.25272566 0.014027238 0.12733011 0.3515952
0.4043984 0.059629098 -0.38080838 0.0053264135 0.05501961 -0.09858593 0.029344682 0.13425831

decoder.4.weight f4 [32, 16]
00000000: 201a 2cbc cc65 62be 0059 bdbd 00f8 12be
00000010: b0a5 81bc d409 53be be15 483e ba3e 5dbe
00000020: b44e 3b3e cc47 963d cc7f 56be 402c 9f3b
00000030: eeb0 21be 6892 1d3e 062e 27be 9cb6 d3bd
00000040: b4e0 fcbd 19a8 07bf 87d1 003f b3db babc
00000050: 99cb 86be f144 bc3d caf4 b7bd f134 8f3e
00000060: 6f89 943e 3eb8 5abf 3322 57bf 52f9 d5bd
00000070: 68b3 d93e 603d 9cbc 40ce 2ebe 5d78 173e
00000080: b2f7 313e 9471 b33d 02da 20be 06cd a4bd
00000090: 5c02 c6bc 723d 003e 7451 54be a5d7 0e3d
000000a0: 244f 363e af58 90bd 719c 2f3d ce0f 05be
000000b0: 87b1 6e3d f6be 74be 3a6c 4abe 04a2 8b39
000000c0: a0b7 4ebd 68e0 90be 6ad0 893d 28d6 36be
000000d0: 43b3 8c3e a1f5 15bf 0ca4 b03e b422 5ebe
000000e0: 42ed ba3e 8c42 103f 69a4 2e3e af8b cf3e
000000f0: ee28 9bbe d495 1a3e eabb c33c 2031 b0be
00000100: b46b f5bd cda6 933d 1ef1 19bd 95a8 5c3e
00000110: 36b7 1ebe 6a0c 5ebd b96f 66bd fc2a 653d
00000120: 5b5b 91bc 5c43 d0bc d989 743c 35ed 523c
00000130: e6c4 ff3d 28d9 14bd 6ecc 6c3e 2a27 8b3e
00000140: be4d 0ebe 9ae9 093e 73b1 6a3e 6849 f8bd
00000150: e6cc 143e dc63 62be f8de 543e 6412 eebd
00000160: de1c 0c3d f282 6abe 1852 7bbe 1c43 b93d
00000170: 103c 60bd b209 2e3e 4de6 73be 400d 913d
00000180: 2070 12bd 7415 26be 608f afbd 5070 81be
00000190: 972a 4b3e e845 dbbd 012f a83d dbba 1b3e
000001a0: d08d 4f3d 0460 8e3d 874e 453e c24c 83be
000001b0: dd57 74be 8036 153e a3e5 65bc cc0d 80be
000001c0: 5c00 04be efbf e3be dfa7 d23e 5279 813e
000001d0: 528f 663e afb5 cfbd 649a 8bbc f464 473e
000001e0: 800f ecbe f573 8e3e 356e 463d 45ee 833d
000001f0: f030 ff3d 3bcc de3d 328c c9bc 28c5 a8bc
00000200: 1829 193d cbb6 c73d 23d7 8abf b2a5 003d
00000210: 04d4 f03e 142c aa3e 44b6 a53e e8c6 3e3e
00000220: 8c2c 803d afef 64be 1718 d53e 547c c53d
00000230: dbb0 2d3f d0e6 05bd 0778 f5bd 9f61 38be
00000240: e6fa c4bd 16d8 003f 7123 49be 3e37 1c3e
00000250: 300a d1bc 30d6 e73e 09fc 28be 93bf 853d
00000260: 28d1 b93e 7016 1f3f 748b cb3d 1886 45be
00000270: 5b67 21be 9074 95be 30f3 ae3e c709 263e
00000280: d09d 533e dc71 4cbf a5fc 153f 9c7e 9fbd
00000290: 0986 17be 99e7 b8bd 957f f23e a18c 423e
000002a0: 2f04 9a3e f53f d43d 752f 3c3e 5ace 90be
000002b0: d470 8c3e 86b7 e03d 84c8 4dbe 2769 0b3e
000002c0: 6381 1c3d 4f4b 4ebe 3af2 56be b9ce 0f3e
000002d0: 6c29 1a3f 238e 103f 5894 95bd 1e66 4c3e
000002e0: 2995 bdbe 8767 dcbe 0a00 073f d280 323e
000002f0: 88e7 ea3e b346 f43d d89f 2abe e6bd 2cbd
00000300: 6052 6d3d 8aa0 37be 9f7f 0c3e 0bf8 a0be
00000310: b383 213e a9ee 703e f849 04be b369 9bbe
00000320: e870 933d 1e12 0bbe c0d8 b1bc 15e1 533d
00000330: 6fe3 b13d 22bf 0a3e d48a b6bd 2a91 093e
00000340: d687 79be d1e4 c8be 29f1 0fbe 1034 963e
00000350: fff1 33bd eec4 93be 0e84 0b3e 6163 8ebd
00000360: dee5 82be b1e3 33bf fcd5 cfbe fa68 223f
00000370: 0af5 f6bd 9d28 81be 2ddd c13d 5ea1 0e3d
00000380: 2e79 4ebd bca0 4dbe 9e7e 78be 5e07 23bd
00000390: 560e a3be ba48 36bb 5d37 083e 6f70 e63d
000003a0: 21ec 9b3e 2bf2 38bf b836 26be f323 133f
000003b0: a52e 5bbe 4533 563e e171 09be d43d 81be
000003c0: 1c12 973d 5477 84bd 0eff 37be b044 b4bd
000003d0: 286b 0ac0 b4d6 2b3e 0f3d 323e 7fed 9abd
000003e0: aa5d 443f 1cb0 a9be 517b d13f dc18 8ebd
000003f0: dbea 8dbe 495e f63d de1f 643e 856d 573e
-0.010504276 -0.22109145 -0.09245491 -0.14352417 -0.015826076 -0.20609218 0.19539544 -0.2160596
0.18291742 0.07337913 -0.20947188 0.00485757 -0.1579015 0.15387881 -0.1632615 -0.10337564
-0.12347546 -0.5299087 0.50319713 -0.022809839 -0.26327208 0.09192837 -0.08982237 0.2797008
0.29011104 -0.8543738 -0.8403656 -0.10447945 0.4251969 -0.019072235 -0.17070866 0.14792009
0.17379645 0.08761898 -0.15708163 -0.080469176 -0.024171047 0.1252344 -0.20734197 0.034873623
0.17803627 -0.07048165 0.042873804 -0.1299431 0.058274772 -0.23900971 -0.19767848 0.00026632857
-0.050468087 -0.28296208 0.06729205 -0.17855132 0.27480516 -0.58577925 0.34500158 -0.21692926
0.36509138 0.5635154 0.17054905 0.40536258 -0.30304664 0.15096217 0.023893315 -0.3441248
-0.11983433 0.07209549 -0.037583463 0.21548684 -0.15499577 -0.054211058 -0.05625889 0.055949196
-0.017743757 -0.025422744 0.014925444 0.012873937 0.12488727 -0.03633991 0.23124859 0.27178317
-0.13896844 0.13468018 0.22919254 -0.12123376 0.14531288 -0.22108406 0.20788181 -0.116246015
0.034207217 -0.22901514 -0.24543035 0.09046003 -0.05474478 0.16995886 -0.23818322 0.07082605
-0.035751462 -0.16219121 -0.085722685 -0.25281 0.19840465 -0.10706693 0.0821209 0.15207998
0.050672352 0.06951907 0.19268237 -0.256445 -0.23861642 0.14571571 -0.0140318 -0.25010526
-0.12890762 -0.4448237 0.411437 0.25287873 0.2251561 -0.10142075 -0.017041393 0.19472104
-0.46105576 0.27822843 0.048444945 0.06441931 0.12460506 0.108787976 -0.024602983 -0.020601824
0.037392706 0.09751662 -1.0846905 0.03140802 0.47036755 0.33236754 0.3236562 0.18630564
0.06258497 -0.22357057 0.41619942 0.09642854 0.67847985 -0.032690823 -0.11985784 -0.1800599
-0.096181676 0.5032972 -0.19642426 0.15255448 -0.025517553 0.452806 -0.16502394 0.065306805
0.36292386 0.6214361 0.09938708 -0.19289434 -0.15762083 -0.29190493 0.34169912 0.16214667
0.2066567 -0.79861236 0.5858863 -0.07787821 -0.14797224 -0.09028549 0.47362962 0.18998958
0.30081317 0.10363761 0.18377478 -0.28282434 0.2742983 0.10972504 -0.20096022 0.13614331
0.03820933 -0.20145915 -0.2099084 0.14043702 0.60219455 0.56466883 -0.07303685 0.1996083
-0.37027863 -0.43047735 0.52734435 0.17431954 0.4587977 0.11927547 -0.16662538 -0.04217329
0.057939887 -0.17932335 0.13720559 -0.31439242 0.15772896 0.23528542 -0.12918842 -0.3035408
0.071992695 -0.1358113 -0.0217098 0.051728327 0.08685958 0.13549474 -0.08913198 0.13434282
-0.24368224 -0.39237073 -0.14056839 0.29336596 -0.043931957 -0.28861183 0.13624594 -0.06952549
-0.25566 -0.70269305 -0.40592945 0.6344143 -0.12058456 -0.25226298 0.09466014 0.03482186
-0.050408535 -0.20080847 -0.2426705 -0.039801948 -0.31846875 -0.0027814345 0.1330237 0.11251914
0.3045359 -0.7224452 -0.16231811 0.5747673 -0.21404512 0.20917995 -0.13422348 -0.25242484
0.07376501 -0.064680725 -0.1796839 -0.088021636 -2.1627903 0.16781121 0.17406105 -0.0756483
0.7670542 -0.33142173 1.6365758 -0.06938335 -0.27718243 0.12029702 0.22277781 0.21037872

decoder.4.bias f4 [32]
00000000: f8bb d3bd 95a0 aa3e a55c 96be 7789 87be
00000010: e26f 09bf 6a2b 50bd 9772 2fbd d5db 8cbe
00000020: aa21 72be 75e2 f93c 31b6 e73d 1ba9 073e
00000030: 98ab ddbd 478d a73d 46f6 583e c5ae 7a3e
00000040: d4df 3bbe 0c35 aebd 57d9 8bbe b854 6dbe
00000050: 3a92 e7bd 790b 7cbe 8314 d13e 189b 923e
00000060: b033 a9bd 3b0b 33be e91f 34be 290b bcbe
00000070: e003 e33e f047 5abe 7b4f f63e e800 87bd
-0.103385866 0.3332564 -0.29367557 -0.26472065 -0.53686345 -0.050822653 -0.04283389 -0.2751147
-0.23645654 0.030503491 0.11314047 0.13248102 -0.108237445 0.081812434 0.21187696 0.24480732
-0.18347102 -0.08506212 -0.27314255 -0.23176849 -0.113071874 -0.24613751 0.40835962 0.28633952
-0.08261812 -0.17484753 -0.17590298 -0.36727265 0.44338894 -0.21316504 0.48107514 -0.0659197
